02-1 CNN/save_model/best_model.pth (torch, 250466 bytes, 10 tensors)

c1.weight f4 [6, 1, 5, 5]
00000000: bf2f d1be b06b 2ebf 0c6f 1ebf 685c 07bf
00000010: d7fe b1be 0ae0 f6be bbd3 e7be 3c34 26bf
00000020: defd 69be de6a cabd 5096 f3bc ebcc 02bf
00000030: 57b6 c8bd 4157 8cbe 39c6 b2bd 4150 283e
00000040: dece 503d 4d82 d1bc 52f9 763e caee 033f
00000050: 3886 c63e 4893 043f f83c 0a3f ac1b 1f3f
00000060: 5451 043f 75cb a6be c085 d8be c89e cfbe
00000070: adc2 e6be 515b e3be baa1 9fbe 90a9 34be
00000080: a23b 12bf 4d07 81be 7b34 4ebe 145a b7be
00000090: 2dda 9abe 0bb4 3fbe 8a04 7ebe 6e25 a2be
000000a0: e468 f5bd 9756 17be 6d8a 18be b619 8dbe
000000b0: 6c53 513e c6e5 67be f7db 86be 6493 2f3e
000000c0: c024 143e 6bb9 553e cc8f abbe b3ce 86be
000000d0: 2314 263e 6d03 293e 1158 a93e 3f80 8a3e
000000e0: 79ca 0d3f a9fa ce3e 5ac5 363f a3bf 2a3f
000000f0: ac4e c03e 4405 4c3f 4962 4e3f dc70 393f
00000100: a63a 003f e2be 113f 5039 073f be87 123f
00000110: 37eb 133f 468e cb3d da55 b03e b9fe ba3e
00000120: f377 b83e 98e4 59bd 70c6 03bf 002c 2bbf
00000130: 6718 14bf 620d 00bf e839 edbe c415 edbe
00000140: 5899 df3c 488d cb3c 4ef2 893d 0db9 8c3d
00000150: 0a1e c33d 0645 e53e 2148 ca3e 448d b53e
00000160: 3f33 e73e c85d 0c3f ec4f b83e 8d8f 313f
00000170: 06a9 3d3f 6b10 213f b7d3 173f 6797 a53e
00000180: 0e9d cd3e eace b23e ccb5 d93e 394e ef3d
00000190: b64f c3be 5175 0ebd a7b1 ffbd 6289 283d
000001a0: a66e 493e e047 febc 8000 b43e 2a5c 183e
000001b0: ab8b e83e 28fc c33e 3671 ec3d 4feb d83e
000001c0: 3bdc 153f acf8 083f a715 0f3f 190b 9ebd
000001d0: 8772 aa3e 87ff 033f 73bd 8f3e 4f7f 3a3e
000001e0: d1ac 1bbe 5199 153e caa7 dfbd 0c0c fb3c
000001f0: 69f5 47be 6670 313f a3a9 f33e cafb f13e
00000200: bae7 d23e 8321 183f 16f2 2f3e 082f ba3e
00000210: 555a 983e 1a85 a03c b7bd 923e 87fd ff3d
00000220: 849d b8be 92e3 72be 9b3b 4cbe 5a50 53bd
00000230: 636f c5be c011 2ebf 683f 0dbf b6b4 c4be
00000240: 2c78 edbe c6a0 2bbf 34c8 40bf 392d 05bf
00000250: 481c 03bf d9fd e5be
-0.4085674 -0.6813307 -0.61888194 -0.52875376 -0.3476474 -0.48217803 -0.45278725 -0.64923453
-0.22850749 -0.098836645 -0.02973476 -0.5109393 -0.098004036 -0.2741032 -0.08729214 0.16436864
0.050978534 -0.025574828 0.24118546 0.5153624 0.38774276 0.51787233 0.5399928 0.621516
0.51686597 -0.325771 -0.42289543 -0.40550828 -0.450704 -0.44405606 -0.31178075 -0.17642808
-0.5712224 -0.25200883 -0.20137207 -0.35810912 -0.3024458 -0.18721025 -0.24806419 -0.31669182
-0.11982897 -0.14779125 -0.14896555 -0.27558678 0.20441979 -0.22646245 -0.26339695 0.17146069
0.14467144 0.20871513 -0.33508146 -0.26329574 0.16218619 0.16505213 0.33075002 0.2705097
0.55387074 0.40425614 0.71394885 0.66698664 0.37560022 0.79695535 0.8061872 0.72437835
0.5008949 0.5693189 0.52821827 0.57238376 0.57780784 0.09939246 0.344405 0.36522463
0.36029014 -0.05319652 -0.51474667 -0.66864014 -0.57849735 -0.5002042 -0.4633324 -0.46305668
0.0272948 0.024847642 0.06735669 0.06871233 0.09527214 0.44779223 0.39508155 0.3545934
0.45156285 0.548306 0.35998476 0.69359666 0.74086034 0.62915677 0.59307426 0.32342073
0.40158886 0.34923488 0.42521513 0.11684842 -0.38146752 -0.03477985 -0.12485056 0.041146643
0.19671115 -0.031040132 0.3515663 0.14878908 0.45419058 0.38278317 0.11545031 0.42367026
0.5853917 0.53504443 0.55892414 -0.077169605 0.33290502 0.5156178 0.28074226 0.18212627
-0.15202643 0.14609267 -0.10920675 0.030645393 -0.1952721 0.6931213 0.4759036 0.47262412
0.41192418 0.59426135 0.17182192 0.36364007 0.29756418 0.019594718 0.28660366 0.124995284
-0.36057675 -0.23719624 -0.19944613 -0.0515903 -0.38561544 -0.67995834 -0.55174875 -0.38419122
-0.46380746 -0.67042196 -0.75305486 -0.5202213 -0.5121503 -0.44920233

c1.bias f4 [6]
00000000: 515e c53e 54d6 0e3f c1a4 abbf 24b5 f0be
00000010: 4f39 36bf ea2e 2b3e
0.3854852 0.5579579 -1.3409654 -0.470132 -0.71181196 0.16717115

c3.weight f4 [16, 6, 5, 5]
00000000: 4ec4 adbd 40db 53bd 90e0 96bc a4ce 8e3d
00000010: 2126 debd 7dc3 cbbd b9be 993d b17b 2e3e
00000020: 2932 6a3c 2c90 30bd fdab 20bd af43 e33d
00000030: 414e 3b3e 08e9 f53c d510 3dbd 3e6f 493d
00000040: e8de c53d eaf0 7f3c 24ff 743d 3ac8 46be
00000050: 4d99 f13d da27 293e 7288 6d3d 89bc f03c
00000060: 4fe6 f8bd 1d2a 4f3d 33f3 6abb 27db 023e
00000070: a764 023d e936 b6bd 8b4e 0c3d 2b4e 753e
00000080: 1ef9 4e3e 33c0 7c3d cfb1 f1bb 3086 263e
00000090: d615 7c3e ee5e 5f3e f7a2 cd3d 4222 4cbd
000000a0: d26b 6c3e da53 083e 9296 053e 7765 34bc
000000b0: 3ab8 72ba a67b 003e d603 463e f7df 643c
000000c0: 9e97 41bd 0b87 e7bc 94d1 b7bd d462 a3be
000000d0: e49c 8ebe e805 a5bd 3ab9 243e 2863 91be
000000e0: f32a c3be bc15 99be 23b5 2ebe bcac f23d
000000f0: d062 b8be d1a7 a7be baf8 80be fb70 dfbd
00000100: 581a 7d3d 9051 b0be fe36 d3be b2ec 32be
00000110: 4e65 b43b a5c2 e63d b88a 38be 6a32 9cbe
00000120: db9b 9dbd 79a0 f5bb 291d 3abd d4a3 2fbe
00000130: 5de2 15be d3d8 e2bd 4072 68bd 2f5a 983d
00000140: 067e 4abe 406f 84be 3ebc 09be 93c8 8a3d
00000150: 902b dc3d a211 27be bb0c 0abe 58b5 2bbd
00000160: 1236 113e 09a5 af3d 628a 02be 308e c7bd
00000170: 0680 b5bd f136 763d 09fc fdbc a5da 95bd
00000180: 22bf 98bd 526f 26bd 4948 cdbc a7e8 6bbd
00000190: b81a f7bd e289 0dbe 4b3c 49be e9b9 023c
000001a0: a05a 553d fae2 e2bd 1fe2 0cbe f018 00be
000001b0: 95d5 49bd afb2 203e 225d 82be 3d78 54be
000001c0: 13b6 87bd 59a9 26bc 63c0 123e 5faa 8bbe
000001d0: e979 4dbe 3d7c 87bd 9480 c2bc 438f 37bc
000001e0: e09c 30be 37d6 bebd 18f2 f6bc 23f1 09bd
000001f0: 8258 503d aab8 123e dcd1 9f3d d55d bb3d
00000200: ff84 eb3c b17c 0dbe dd4b d43d 5f3f fb3d
00000210: 0417 e13d a031 ba3c cdfe 36be baa3 fe3d
00000220: 116c 263e 6e9d 723c cee3 02bd ce6a 02bd
00000230: 8f06 293c 420a d03d ca6b 3bbd 9d68 67bd
00000240: f7e5 a93b 3996 fdbb 785c 43bd 9321 94bd
00000250: ae62 ca3c a4f7 593d 709e 14be b237 d0bd
00000260: e9ae 45be 0500 3bbe 6113 09be 90f6 26be
00000270: 8a42 43be 72cc 8cbe 5649 05be 9b38 30bd
00000280: ab46 23bc d3de 733d ee25 663d 36d9 a03e
00000290: 4b4a 643e 7081 2f3e e2cb 8e3e 8d50 a53e
000002a0: b640 973e 7716 3c3e 2118 063e b2a9 063e
000002b0: 8554 d83d 6ae8 a3bd 9838 86be 7b41 04be
000002c0: 0aee 37bd 51ea 1cbe f2f0 ab3b eb44 57bd
000002d0: c04e 04bd fac7 ccba 515a 1d3c 8076 293e
000002e0: 869b 4a3d a271 143e 545a 0d3e 5df5 083e
000002f0: a56a 4c3e 3d53 363e da88 033e d3de 693e
00000300: 820a 2a3e 13ab 5d3e 0583 a3bd 0331 e43d
00000310: d6c1 343e 366e d53d 9276 043c 89ea 1bbe
00000320: 618b 1e3d ea07 1c3e efbd 933d 8328 9fbd
00000330: 482f 00be a320 fbbc 8907 40be 72c4 adbe
00000340: 07e1 04bf 3b2e 52be beae b9be 6d0e ecbe
00000350: 29ee 23bf 7723 1fbf 466f 4ebe f03d c5be
00000360: 259b e3be 1147 aebe 8271 5bbe acca 1b3e
00000370: 4956 0ebe dd6a 3fbe b627 cebb 1a67 653e
00000380: ab1f 8f3e f6ad 323d 9922 a83d 1bcf 0b3d
00000390: e845 26be 7fa4 9ebd 7333 25be 88a3 58be
000003a0: 2285 afbe 576d d7be 9412 04be 0950 b5be
000003b0: 6c97 bbbe ee8e e1be 1755 4dbe 786b 333d
000003c0: a48e 0bbe f58e 00be 2b10 26bd ceed 693e
000003d0: 7332 763e 98c4 a33b 8d96 d83d 887c 0f3e
000003e0: 2f77 6a3e db92 2f3e 553b e23d ca12 1c3e
000003f0: 4c80 7a3c 588c f13b db75 ef3d 4805 b1bd
-0.08484708 -0.051722765 -0.018417627 0.06973007 -0.10847116 -0.09949396 0.075070806 0.17039372
0.014294186 -0.043106243 -0.03922652 0.11096894 0.1829157 0.030018345 -0.04615863 0.049178354
0.096616566 0.015621403 0.059813634 -0.19412318 0.11796818 0.16519108 0.057991453 0.029386776
-0.12153303 0.05057727 -0.0035850524 0.12778912 0.03183427 -0.08897192 0.034254592 0.239556
0.20212218 0.061706733 -0.0073759328 0.16262126 0.24617705 0.21813557 0.10040849 -0.04983736
0.23088005 0.13313237 0.1304572 -0.011010519 -0.0009259019 0.12547168 0.19337401 0.013969413
-0.047263734 -0.028262636 -0.08975521 -0.31911337 -0.27854073 -0.08057767 0.16086283 -0.28395963
-0.38118705 -0.29899395 -0.17061286 0.11849353 -0.36012888 -0.3274522 -0.25189763 -0.10910221
0.0617927 -0.34437227 -0.41252893 -0.17473105 0.0055052405 0.11267594 -0.18021667 -0.30507213
-0.07695743 -0.0074959365 -0.045437966 -0.17152339 -0.14637132 -0.11076512 -0.056749582 0.07439076
-0.19774637 -0.25866127 -0.13450715 0.06776538 0.107504964 -0.1631532 -0.13481419 -0.04192099
0.14180782 0.085764 -0.12748101 -0.09743917 -0.08862309 0.06011099 -0.031003969 -0.07317094
-0.07458331 -0.040633507 -0.025058882 -0.05759492 -0.12065643 -0.1382213 -0.19651906 0.007978895
0.05208838 -0.110784486 -0.13758133 -0.12509513 -0.049275953 0.15693162 -0.2546168 -0.20748992
-0.06626525 -0.010172212 0.14331202 -0.2727842 -0.20066036 -0.066154934 -0.023742951 -0.01120359
-0.17247343 -0.09318202 -0.030144736 -0.03367723 0.050865658 0.14328256 0.078036994 0.091487564
0.02874994 -0.13817097 0.10366032 0.122679465 0.10990718 0.022728741 -0.17870636 0.12433572
0.16252162 0.014808042 -0.031955533 -0.031840138 0.010316505 0.101582065 -0.045757093 -0.05649625
0.0051848846 -0.007738855 -0.047695607 -0.07232966 0.024705257 0.053214684 -0.14513564 -0.10166873
-0.19305004 -0.18261726 -0.13386299 -0.16304994 -0.19068351 -0.2749973 -0.13016257 -0.043022733
-0.009965579 0.059538674 0.056188516 0.3141572 0.22293966 0.1713922 0.27889925 0.32288018
0.29541558 0.18367945 0.13095142 0.13150671 0.10562996 -0.08003314 -0.26215053 -0.12915604
-0.044904746 -0.1532376 0.005247229 -0.05255596 -0.032301664 -0.0015623563 0.009604053 0.1654911
0.049464725 0.14496472 0.13803989 0.13374849 0.19962557 0.1780519 0.12845173 0.22838907
0.16605571 0.21647291 -0.07983974 0.11142161 0.17652068 0.10421412 0.00808491 -0.15226187
0.03870714 0.15237394 0.07213961 -0.07771399 -0.12518036 -0.03065521 -0.18752874 -0.33938938
-0.51905864 -0.20525448 -0.3626613 -0.46104756 -0.6403528 -0.6216349 -0.20159635 -0.38523817
-0.44454303 -0.34038594 -0.21430019 0.15214032 -0.13900103 -0.18693109 -0.006291355 0.22402611
0.27953848 0.043622933 0.08209724 0.034133058 -0.16237605 -0.07746219 -0.16132908 -0.21156132
-0.3428126 -0.42075607 -0.12897712 -0.35412624 -0.36638963 -0.4405436 -0.2005199 0.043803662
-0.13628632 -0.12554534 -0.040542763 0.22844622 0.24042682 0.004997801 0.1057559 0.14012349
0.22897027 0.17145865 0.11046473 0.15241542 0.015289377 0.0073714666 0.11692401 -0.086435854

c3.bias f4 [16]
00000000: 85f5 f53b 6762 7fbd 1b24 c0bd 7d11 d1bd
00000010: 59e0 da3c d101 9fbc da9d bdbd 8646 bfbd
00000020: 8a1e f8bd 6182 75bd 1769 a73b be50 8ebd
00000030: a713 37bd 168b afbd 9df1 d4bd 061f c13a
0.007506075 -0.062349703 -0.093818866 -0.10208414 0.026718305 -0.019410046 -0.092586234 -0.09339623
-0.121152 -0.059938792 0.005108963 -0.06948994 -0.044696476 -0.085714504 -0.103976466 0.0014733977

c5.weight f4 [120, 16, 5, 5]
00000000: aa57 293d c9b7 6b3c 6e76 733d 9700 a8bc
00000010: e088 0cbc 5bf0 3d3d fb0a 20bc 6e26 89bc
00000020: 4c67 263c 684a 98bc cfe7 103a ba9e 083d
00000030: 6eaf fdba 11e5 a43c f333 5a3c 24e1 c7bc
00000040: a7f9 96bc 513e 37bd 229e 803d 9b71 7cbd
00000050: dc55 c03c 8558 fcbc a3fd adbd 384a a1bc
00000060: baf9 60bd 241b bd3c cc79 34bd 4124 f03c
00000070: 2add 793c 7327 e53a 4f87 0d3d 11df 8b3c
00000080: bb2f e33c 7eba 193d d392 1cbd ab49 f83a
00000090: 349f 2ebe bf52 bdbd 5a1c c13d cef6 cebc
000000a0: 79e3 3dbd 0d56 97bd d762 803d 95dc 8ebd
000000b0: ef81 4dbd aa3e a0bd d1e1 c1bd 3e85 4ebc
000000c0: b616 0cbc 34d0 903c 0ed1 443a 64d7 94bc
000000d0: d648 6fbd b3f4 1f3d f613 5d3c cd9f 44bd
000000e0: e5ab a23d 646d 23bd 4c0f 1bbd 5fef 3a3d
000000f0: eca4 ec3b da67 153d 1839 68bd 09ad d2b8
00000100: 2165 773d c21b eebb f8aa e23c c899 12bd
00000110: cc44 f1bb 5a12 a9ba 6d8f 5cbd 878d 213c
00000120: d6b8 8e3d 5875 41bd 6186 d7bc 4dd5 17bd
00000130: 0cf8 a33c 74f0 7d3c 22fb e7bc 9acf 1dbd
00000140: 880d ad3b 1957 72bc 9e29 bc3c 8954 b43c
00000150: 2069 9cbc babb bdbc 7f09 483d 57c5 133c
00000160: 253f 5dbd 016c b13c 65bb 873d e5cf 2abd
00000170: 1ac4 183c 5089 3f3d 9fb8 e6bc 2cbf 8fbc
00000180: 99dc 1a3b 2dfc 323d 8c8d 8abc bcbd 14bc
00000190: ec17 28bd 138b de3c a498 16bd d766 72bd
000001a0: 11a7 1a3d d99e 223d 76ec 4e3c d858 b63c
000001b0: 1381 eebc 3e8a c43c 74b5 45bd 6eb1 53bd
000001c0: 61ff bcbc 3163 2bbc c00a a03c cfd7 103d
000001d0: f150 c33b 8f7b 8f3d 3c5b 65bc 16b5 8b3c
000001e0: 32ba 70bc abc4 193d 245c ec3b 1890 933c
000001f0: f95e 1cbd 7111 35bd 2a92 603c bbbc 0abc
00000200: f6a9 473b 97c6 d93c b39a dabb 479d abbd
00000210: e15a b4bd e8d7 c039 528f d83b 39e6 3fbd
00000220: a1b9 a83d 3f1e 61bd 5142 3abc 76b1 573d
00000230: 1541 ab39 785a 0b3c 2dd9 c8bc bed2 543d
00000240: 6496 5e3d 2a54 aa3a 63fc 493d 12cd 813d
00000250: 1d5c 913d f7c5 62bc 6da8 a33c fc2f 763b
00000260: a87a 15bd e525 2f3d f872 11bd 86ed 49bd
00000270: dd5d 78bd acaa 033d 40a5 633d cab1 43bd
00000280: 80ab 7abc 234b dc3d ca62 0ebd bf5c 39bb
00000290: daa1 063b b6bb 98bb 693f 343d b24a 85bd
000002a0: 2d3e e13c 79d2 bcbc e287 163d 964b 553d
000002b0: 9416 113c d582 b93d 39b0 0f3d 441d 203c
000002c0: 1763 013d 46ff 73bd c9fa 373c 4900 cbbc
000002d0: e84d 11bd b393 b6bc d6ea 25bd b5c4 27bd
000002e0: d058 573c 0e79 1dbc 5843 243d e29f dabc
000002f0: a7f3 dfbc b14f 65bc 8bbf 9f3c 80d7 193a
00000300: a94b 23bd 3fb8 e1bc 62b8 dbbb a972 2ebd
00000310: d0cc 763d c746 f3bb cd2d e73a af28 1c3d
00000320: 48b7 d6ba 8115 41bd 6fa6 2bbd ed51 15bd
00000330: 3590 6d3d 2183 d93c 136c 973d 9678 7b3c
00000340: b302 32bd fde7 a6bb b126 9e3c 2122 94bb
00000350: b69e be3d ea1e 9fbd 96fa 58bd da75 a6bd
00000360: 2260 293c 253c b43c 84b9 d8bd c504 64bc
00000370: 630a cbbb 6c2e 413c 171c 293c 8922 f7bc
00000380: 7373 173c 583c 89bc 20d2 69bb 7387 17bc
00000390: bcb0 653d aa97 963c 5412 2e3d 29e3 8e3c
000003a0: d7c6 9bbd ed06 823c 94fe 233d e366 35bc
000003b0: 6900 85bd 151f b6bd b8b0 b3bc 63bd ba3b
000003c0: 9504 9c3c 74ea 84bd 4063 4dbc e10f 89bd
000003d0: b60d df3c 910f 143c fb7e 4f3d d825 d03a
000003e0: 7a53 833d 7825 39bc c30c 1abc 64a0 983d
000003f0: 8734 0a3d 47d3 45bd 9b6b f23c be3f 12bd
0.04134337 0.0143870795 0.059439115 -0.020508094 -0.008577555 0.0463718 -0.009768243 -0.016741958
0.010156464 -0.018590167 0.0005527706 0.0333545 -0.001935465 0.020128759 0.01331805 -0.024399348
-0.01842959 -0.044737164 0.062801614 -0.06163178 0.023478441 -0.030803928 -0.08495643 -0.01968871
-0.054925658 0.02308423 -0.044061467 0.029314162 0.0152504835 0.001748307 0.03455287 0.01707414
0.02773272 0.03753137 -0.03822596 0.0018942853 -0.17052919 -0.09244298 0.09429236 -0.02526417
-0.046359513 -0.0738946 0.06268852 -0.069756664 -0.050172742 -0.07824452 -0.09466899 -0.01260501
-0.008550337 0.017677404 0.0007507958 -0.018169113 -0.05841907 0.039051723 0.013493529 -0.04800396
0.079429425 -0.039899245 -0.037856385 0.04563844 0.0072218087 0.036475994 -0.056695074 -0.000100458106
0.06039918 -0.0072664926 0.027669415 -0.03579119 -0.0073629376 -0.0012899146 -0.05384772 0.009860403
0.069688484 -0.04723105 -0.026309194 -0.037068654 0.020015739 0.015499223 -0.028317992 -0.038528062
0.005281154 -0.0147912735 0.022969063 0.022012966 -0.019093096 -0.023160804 0.04883718 0.009019217
-0.054015297 0.021657946 0.066275395 -0.04170217 0.009324098 0.04676181 -0.028164206 -0.017547213
0.0023630022 0.043697525 -0.016913198 -0.009078439 -0.04103844 0.027165925 -0.036766663 -0.059180107
0.037756983 0.03970227 0.012629619 0.02225916 -0.029114282 0.0239917 -0.04826875 -0.051682882
-0.023070993 -0.010460661 0.019536376 0.03536206 0.0059605767 0.07005989 -0.013998803 0.017054122
-0.01469283 0.037541073 0.0072131325 0.018013045 -0.03817651 -0.044206087 0.013706723 -0.008467848
0.0030466295 0.026583953 -0.0066712736 -0.08379608 -0.08806396 0.00036781956 0.006608882 -0.046850417
0.08238531 -0.054960486 -0.01136835 0.052659474 0.00032664152 0.008505456 -0.02451762 0.051958792
0.054342642 0.0012995054 0.04931296 0.06337942 0.07097647 -0.013841144 0.019977773 0.0037565222
-0.036493927 0.04276075 -0.035510033 -0.049298786 -0.06063639 0.032145187 0.055577517 -0.047776975
-0.015299678 0.10756519 -0.03476218 -0.002828404 0.0020543248 -0.0046610488 0.044005785 -0.065083876
0.027495468 -0.02304958 0.03675068 0.052074037 0.008855481 0.09058157 0.03508017 0.0097726025
0.03158864 -0.05956962 0.011229225 -0.02478041 -0.035474688 -0.022287225 -0.04050716 -0.04095908
0.013143733 -0.009611381 0.040103287 -0.026687566 -0.027337862 -0.013996051 0.019500514 0.0005868599
-0.039867077 -0.027553676 -0.0067053298 -0.042589817 0.06025392 -0.007424209 0.0017637551 0.038124736
-0.0016381526 -0.04713965 -0.04190677 -0.036455084 0.057998855 0.026551785 0.073936604 0.015348574
-0.043459605 -0.005093573 0.019305559 -0.00452067 0.093076155 -0.07769568 -0.052973352 -0.08127947
0.010337861 0.022001335 -0.10582259 -0.013917153 -0.0061963066 0.011790853 0.010321639 -0.030167835
0.009243834 -0.016752407 -0.0035678223 -0.009248602 0.05607675 0.018382866 0.042497948 0.017442303
-0.07606285 0.015872443 0.040037706 -0.011071893 -0.06494219 -0.08892647 -0.021934852 0.005698846
0.019045154 -0.06490031 -0.01253587 -0.06692482 0.027228218 0.009036914 0.050658207 0.0015880419
0.06412406 -0.011300437 -0.009402457 0.07452467 0.0337415 -0.048297193 0.029592326 -0.03570532

c5.bias f4 [120]
00000000: 8558 12bd 5a91 c2bc 8518 84bd 75bc b6bc
00000010: 2e23 5cbd a2c9 e7bc b4de 1abd 277f 08bd
00000020: 7201 173d 8bb4 cabb 8f41 28bd 2e40 593a
00000030: 1cf4 8f3c 12a1 1bbd cfdb c4bc 4ac6 c43c
00000040: e436 fdbc 22a8 103d ca63 13bd e3bc 6d3d
00000050: dddb a33c 0cde 053d 8fbe 123d c837 d0bb
00000060: 4fa4 91bd ac75 8abc 3684 2b3c 6813 e93c
00000070: 091e 59bd 1193 9eb8 1b92 ff3c 7567 e63c
00000080: 83b7 0abd d1ce c53a 8c03 3c3d 1eb7 81bb
00000090: 317a 53bc 6673 11bd d1d0 94bc e522 143a
000000a0: 1431 29bd 6eed 463d b080 e7bc 556e 823c
000000b0: deac a63c f335 923c 0d71 eebc afd1 28bd
000000c0: 42e8 e33c ba39 3abc 7d24 01bd 4f0c 52bc
000000d0: a1a3 a7bc 2b5d 0fbd 5935 1bbd c5f1 28bd
000000e0: f170 3b3d 0934 203d 6c2f 64bc 0ddc 1ebd
000000f0: f597 e0bc f55b 18bd 846e af39 3f90 403d
00000100: 1906 793c 33ab f53c 89eb 803c f680 75bd
00000110: bedf e93c 05f5 a03c f958 41bc 869f 24bc
00000120: 0fdc f13c 7822 64bb 33ed 2bbd 3a22 afbc
00000130: 7b55 a43c 17ac 183c 75c9 a53c b2f1 333c
00000140: 093c afbc 3597 8dbb 5c78 34bd 89c0 5abc
00000150: bec3 3f3c 5411 50bc 078e 9c3b 49af ba3c
00000160: 1edc 04bd d9c4 a9bc 0583 303d 9412 ba3c
00000170: ce4c 5abc ba28 593d d4e6 6c3c e86d 0bbd
00000180: c337 b83c e4aa 9e3d 0e31 5c3c 4f1e a9bc
00000190: a3f3 5a3d 72a0 1cbd fee6 27bd b843 843a
000001a0: bd05 67bc 39b7 f93b fa03 7cbc c567 2d3d
000001b0: b8d8 de3c 4447 23bb ffd4 443c e5b7 223d
000001c0: f6cc 83bb a985 24bc 253d f3bb a506 fd3c
000001d0: 5829 4d3b d6a3 203c 7532 f43c d775 463b
-0.03572895 -0.02375095 -0.06449989 -0.02230666 -0.053744487 -0.028294388 -0.037810043 -0.033324387
0.036866613 -0.006186073 -0.041078147 0.00082874566 0.017572455 -0.037995405 -0.024030594 0.024020333
-0.030909963 0.035316594 -0.03598384 0.058041465 0.0200023 0.032682464 0.035826262 -0.006354306
-0.071114175 -0.016901813 0.010468533 0.028451636 -0.05300716 -7.56142e-05 0.031197598 0.028125504
-0.033866417 0.0015091543 0.04590182 -0.003958597 -0.012907551 -0.035510443 -0.018165978 0.00056509516
-0.04130657 0.048566274 -0.028259605 0.015921751 0.020346101 0.01784799 -0.029106641 -0.041215595
0.02782071 -0.011366302 -0.03152894 -0.012820317 -0.020463767 -0.03500096 -0.037892673 -0.041246194
0.045762006 0.039112125 -0.013927322 -0.038784076 -0.027416209 -0.037197072 0.00033460942 0.047012564
0.015199208 0.02998886 0.015737312 -0.05993744 0.028549071 0.019648084 -0.011800998 -0.010047799
0.029523877 -0.0034810584 -0.041974258 -0.021378625 0.020060292 0.009318373 0.020237664 0.010982918
-0.021390932 -0.004321004 -0.044060096 -0.013351568 0.011704383 -0.012699444 0.004777673 0.02278866
-0.032436483 -0.020723747 0.0430937 0.022713937 -0.013323976 0.053017356 0.014459331 -0.03404036
0.022487527 0.077474385 0.01343943 -0.020644335 0.053455006 -0.03823895 -0.040991776 0.0010090983
-0.014100489 0.007620719 -0.015381807 0.04233529 0.027202949 -0.0024914304 0.012013673 0.039726157
-0.004022236 -0.010041633 -0.0074230605 0.030886957 0.003130516 0.0098046865 0.029809216 0.003028264

f6.weight f4 [84, 120]
00000000: 143d 043e 51b2 c23d ccb8 0cbd ff96 32be
00000010: b958 e1bc 2244 e83c 14f6 9cbd a2be 0bbe
00000020: 6816 603d 9fab 913c 51fb 15bc 1078 7a3d
00000030: 1831 b7bd 8fda abbd b2a7 b0bc b1ae 35be
00000040: eec9 123d 78b8 a83d 792f 6bbd 03d6 ff3d
00000050: 7db9 2cbe 378d a43c 83ea 28be 86e7 473c
00000060: 43ef b8bd 12e6 e9bb 0bc5 1cbe 6885 b23d
00000070: e607 24bd 9889 e73d 1d79 f53d 126a 9fbd
00000080: dc87 aebc 85cb 04bd d64d 6d3e a7f4 e1bd
00000090: 0e92 90bd 23a0 a2bd ce35 e0bd 50f0 493d
000000a0: 8ac9 793c 8ca7 2c3e 84f2 1ebe eb10 2dbc
000000b0: 00c4 9fbd b0c2 393d 38a7 c13d 22a4 8939
000000c0: 2edb b0bc 133e e6bd 5eca 733d 2e57 f83d
000000d0: 2a7a efbd 0feb d2bc 02e2 a33d f22d 48bd
000000e0: 5324 123e c3e1 403d 5d1c c7bc 578f d8bb
000000f0: 7b02 ee3d 9fac d93d 8cf7 3c3d 08b7 613d
00000100: 8f15 11be f1fc 083e 7259 c4bd a45c 14be
00000110: 34e7 e43b 43fa 653c 1a4f d9bd 1cab 773d
00000120: 489c eebd 1b68 1e3e 8105 9ebb 02aa aa3d
00000130: f8c5 08bd b7ad 9fbd cbef 03bd f0c0 8b3d
00000140: d9f1 46bb 1905 8fbd f8d7 5b3d 791c 8c3d
00000150: f10d 413d 11e7 e93d c0d2 74bd 1bbc ca3d
00000160: af90 b7bd 5ae3 c0bd caf4 3f3d 1cb3 023e
00000170: 61fa b53c 7e92 5e3d 280b bcbd 8851 0ebe
00000180: b758 633d eb9a 103e 1a66 f4bc 6dbc 1d3d
00000190: cfce 2fbe ab03 3d3d 0a1d 8e3d 6252 18be
000001a0: b37b 0dbd 804b 11be af60 8b3d 7332 5abd
000001b0: 9bad babd 2f55 653d 5b9b 5fbd 4c33 c73c
000001c0: 8006 debd d719 22be aef9 8e3c b25a 95bd
000001d0: db28 b6bd 0a87 873d b98b 0dbe e4b4 0dbb
000001e0: de54 803d 7e58 24bd 9782 c9bd a4cb a83d
000001f0: 7030 8d3d 02af edbb f26b 043e 109f 06be
00000200: e64e 9b3d 01ad 073e 545b 7b3d 5a19 993c
00000210: 76a6 8c3d 938f dfbd b7ac b23d c87f ab3a
00000220: 2c7d dbbd ed03 043e 6a04 b0bd 6aa2 353d
00000230: 20e3 85bd 3af7 e1bd 82be ae3c 12b9 7c3d
00000240: 80be 20bd 85fe e4bd 920c 303e 47a4 ddbd
00000250: 0c5b abbd 25ee 96bc 0ef2 21bd cfd4 d3bd
00000260: 0a75 763c d91d e4bc 9fc5 ea3b 94c2 be3d
00000270: 740d 083e f73d e43d 6c4b c33d 8224 573d
00000280: 8fff 563d 6f96 3cbc 351e 4d3d 6fc1 8b3d
00000290: 389e 883d 0158 9ebc bf44 653c 22bf ba3b
000002a0: 8fdb 9dbd 12bd ff3d de4a 2c3e 3ce5 d13d
000002b0: f486 05be b65e 56bd 3af0 c6bd b6a4 97bc
000002c0: d0ef 853d 0528 90bc 8568 b13d 5b1c 343d
000002d0: b5aa d93b aef7 de3d ecb3 35bd 1e7c 44bd
000002e0: db57 59bd 75c0 66bd 1fb2 e53d 61e2 923c
000002f0: 470d 50bc 0fe9 96bd 682c b4bc e7c1 40bd
00000300: ac39 113e 5278 a6bd 5d17 91bd 6c7f e6bd
00000310: ac7b 573b c06e 02bd 6423 9d3d 812a bbbc
00000320: 0c0a b93a bba3 afbd 0e4c 2d3c d39c c9bd
00000330: 8028 e53d 2f14 9a3b d68e 413d aac7 d43c
00000340: 7b0e ca3c 50f5 5cbd e6b9 843d 6da8 b93b
00000350: 9441 da3d e5bd 61bd bd48 cebc fc36 acbd
00000360: 0b15 a9bd 70f7 803d 03f5 1a3e 5e82 d53d
00000370: 4720 8b3d 2d6a 94bd 1b67 043c 3ac9 acbd
00000380: d2d8 dabd 1ff1 e13d 74fd 7ebc 9898 85bd
00000390: 4a8d d5bb a97f eb3d 98dd fd3c b2d4 87bd
000003a0: f595 97bd 7e2d 7c3d 2621 d8bd 38e1 b73d
000003b0: bbfb a33d 12e7 bf3d aebc 1bbc 3abd f9bc
000003c0: a10e 07bd 641b 4a3d 7075 5c3d 44e1 c23d
000003d0: cf44 27be e132 0a3e 4a7f 86bd c8f1 b2bd
000003e0: da9f 33bc 9fcf cebd c1fd db3c bcb2 863c
000003f0: 87e0 953d ee7f 723d a753 ac3d 3cb8 94bd
0.12913924 0.095066674 -0.034355924 -0.17440413 -0.027508127 0.0283528 -0.07664123 -0.1364694
0.05470887 0.01778203 -0.009154157 0.061149657 -0.08944911 -0.08391296 -0.021564338 -0.1774242
0.035837106 0.082383096 -0.05741832 0.12491991 -0.16867633 0.020086868 -0.16495709 0.012201196
-0.090300106 -0.007138022 -0.15309541 0.087168515 -0.040046595 0.11305541 0.11985991 -0.07783903
-0.021305017 -0.032420654 0.23174223 -0.11032992 -0.07059108 -0.079407 -0.109477624 0.049301445
0.015245805 0.16860789 -0.155222 -0.010563116 -0.07801056 0.045351684 0.094557226 0.00026252965
-0.021588888 -0.112423085 0.059519164 0.12126003 -0.11693223 -0.02574685 0.08002092 -0.048871942
0.14271669 0.047090303 -0.024305517 -0.0066088843 0.11621567 0.10628628 0.046134517 0.055106193
-0.1416838 0.1337774 -0.09587373 -0.14488465 0.0069855694 0.014036718 -0.106107906 0.060465917
-0.11650902 0.154694 -0.0048224335 0.08333208 -0.033391923 -0.07796805 -0.032211106 0.06823909
-0.0030356555 -0.06983394 0.05367276 0.06841368 0.047132436 0.114210255 -0.0597713 0.098991595
-0.08963143 -0.09418364 0.04686431 0.12763637 0.022214117 0.054338925 -0.091818154 -0.13898289
0.055504527 0.14121597 -0.029833842 0.038509775 -0.17168735 0.046146076 0.069391325 -0.14875177
-0.034541797 -0.14188957 0.0680555 -0.05327077 -0.09115144 0.05598944 -0.054591518 0.024316452
-0.108410835 -0.1583017 0.01745304 -0.072926894 -0.08894511 0.066175535 -0.13822831 -0.0021622712
0.06266187 -0.040123455 -0.09839361 0.08241966 0.06894004 -0.0072535286 0.12931803 -0.13146615
0.07583408 0.1324959 0.061366394 0.018688846 0.068676874 -0.109160565 0.08724349 0.0013084346
-0.10717234 0.12892123 -0.08594592 0.044344343 -0.06537461 -0.11033483 0.021331076 0.061699934
-0.039244175 -0.11181358 0.17192295 -0.10822349 -0.08366975 -0.018424103 -0.039537482 -0.103433244
0.015042553 -0.027846264 0.0071646716 0.093144566 0.13286382 0.11144631 0.0953587 0.05252505
0.052489813 -0.011510476 0.050077636 0.06824004 0.06670803 -0.019329073 0.013993441 0.0056990543
-0.07707893 0.12487234 0.16825435 0.10248801 -0.13039762 -0.052336417 -0.09713788 -0.018511157
0.06539881 -0.017597208 0.08662514 0.043972354 0.0066426643 0.10887085 -0.04436104 -0.04796993
-0.0530623 -0.056335885 0.112156145 0.017930211 -0.012698478 -0.07368671 -0.02199383 -0.04705992
0.14182156 -0.08128418 -0.07084534 -0.112547725 0.003288011 -0.0318439 0.07672766 -0.022847416
0.0014117374 -0.08576151 0.010577215 -0.09844365 0.111893654 0.004702113 0.04725536 0.025974113
0.024665108 -0.053944886 0.0648077 0.00566583 0.10657039 -0.05511274 -0.025181169 -0.08408925
-0.08255967 0.06297195 0.15132527 0.10425256 0.06793266 -0.07246814 0.008081223 -0.084368184
-0.106858864 0.11032318 -0.015563358 -0.065232456 -0.006517087 0.114989586 0.030989453 -0.06632365
-0.07401649 0.061566822 -0.105531976 0.08978504 0.08006998 0.09370245 -0.009505434 -0.030485738
-0.032972936 0.049342528 0.053822935 0.09515622 -0.16334842 0.13495971 -0.06567247 -0.08737522
-0.010963405 -0.10098194 0.026854398 0.016442649 0.07318216 0.059204035 0.08414393 -0.072617024

f6.bias f4 [84]
00000000: 3639 943d db93 e5bd 2afb d63d 2a3c 24bd
00000010: d2b2 683d 9a23 86bd da8f 1abd 700b ae3c
00000020: dd10 453d f58e 953d e1ce 71bd babf 4abd
00000030: ed50 a03d 020c 3ebd 8b1a 1dbc 0ad2 83bd
00000040: 9132 943a f1b9 22bd 0cc4 b73b 8b47 b53d
00000050: a1c9 023d 3fc9 3bbd b93a 6cbd f1ec 30bd
00000060: 3fc6 e83c b062 9e3d e18d e93c c91d 29bd
00000070: 784f 6ebd 9931 94bc 545f c8bb 4db4 eebc
00000080: 8cf6 4e3c 9016 49bd 40f6 13bd 1626 96bc
00000090: d194 673c 4a3a 8ebd 8358 c8bc 534c e2bc
000000a0: d019 a4bc 9627 d5bd 1b9a 2ebd 8808 2a3d
000000b0: 0fa2 3e3c 1bb4 dc3c 4e33 56bd 04bf 9f38
000000c0: 08da 873d 2622 233c f290 41bd c313 b73d
000000d0: fa29 ecbc b638 20bd 6810 38bd 92d0 1b3d
000000e0: 83b8 6bbd d8eb 903d 5d3b 833d 7c81 fdbd
000000f0: 96c3 a63d f83c 51bd 1f4b 35bd 5589 9f3c
00000100: 1ef9 633d 9cc8 54bd feeb 2e3d 32f1 67bd
00000110: 3f9d a7bc a7e4 9cbd 7cd9 82bd be03 893c
00000120: 2c7c f6bc a697 a03d 9344 3a3d 66d1 953d
00000130: 0577 633d 1778 11bc e9dd 263d 7d22 27bd
00000140: 6faa acba 2688 6abd dd94 8f3d bbbc e03b
0.072374746 -0.11209842 0.104971245 -0.04009644 0.05681116 -0.06549759 -0.037734844 0.021245688
0.048111785 0.073026575 -0.059035186 -0.04949925 0.07827935 -0.04639817 -0.009588848 -0.06436546
0.0011306574 -0.03972811 0.0056080874 0.08851536 0.03193057 -0.04584622 -0.05767319 -0.043194715
0.028414844 0.07733667 0.028510036 -0.04128817 -0.058181256 -0.018090056 -0.0061148796 -0.029138708
0.012632024 -0.049093783 -0.036123514 -0.018328708 0.014134602 -0.069447115 -0.024456268 -0.027624285
-0.02003184 -0.10407941 -0.042627435 0.041512042 0.0116353175 0.02694135 -0.05229502 7.61729e-05
0.06633383 0.009956872 -0.04725737 0.08939316 -0.02882861 -0.039116584 -0.04493752 0.038040705
-0.05754901 0.070762336 0.06407807 -0.12378213 0.08142774 -0.051083535 -0.044261094 0.019474665
0.0556575 -0.05194913 0.04270553 -0.056626506 -0.020460723 -0.076607995 -0.06389138 0.016725417
-0.030088507 0.07841425 0.045475554 0.0731533 0.055533428 -0.008878729 0.040738974 -0.040804375
-0.0013173352 -0.057258748 0.07010815 0.006858436

output.weight f4 [10, 84]
00000000: 3092 203e 0eb4 aa3e 674c e6bd 3cda 9e3d
00000010: a0ff 663e f3a6 d93d 1fb7 cdbd c971 bcbd
00000020: 4f34 693e e79e 0fbd d408 1d3e bf38 d03d
00000030: d30f 29bd da67 a13e 35ed 54be cfba 873e
00000040: 6e38 15be c4cf a5bd 0f83 2c3e 2a76 afbe
00000050: 307d 123e dd13 f1bb 424d 4ebe ab07 9dbd
00000060: 2d0c 8b3b 7d96 99bd 74ab 163e cec3 a23e
00000070: 6256 853e 17d1 08be aab8 2b3e cc12 8ebe
00000080: 4427 183d 735f 19be 8a38 223e 5701 0d3d
00000090: d094 853e ee8b a73d 23b8 59be b447 d03b
000000a0: 6e10 ad3e b13d d53c 9713 7c3d 37f4 e93e
000000b0: 0449 f73c d245 403e 24f3 973d 513c 413d
000000c0: 82a2 e2bd 848b adbe 3c3b c53e d7ad 85be
000000d0: d3a9 213d cd69 54bd 5479 96be cf12 7abe
000000e0: 1cce b83e d773 573e b7b8 19ba 036c 413d
000000f0: a27f 563e 6fb1 3ebc e057 bb3d 1a22 e23d
00000100: 97dd 6b3e ab5d 323e b54c 4cbe 8d51 21be
00000110: 1531 8ebe ef2e 833e b243 d73e 2b61 cc3c
00000120: cbc6 483d 356c 4a3c dcb0 bc3e fbdf 10bd
00000130: f221 543e 6f7f bd3b 6f88 343e b768 b83e
00000140: 1d70 253e 3599 503e f7c8 1ebe cb66 553e
00000150: e7f1 0cbf 5e79 273e 3ec4 4bbe 765a 52be
00000160: 1d62 e1bd bfed 963e 079e 753b aab8 c73d
00000170: b870 8c3e e361 983d 253d 8b3e 41b6 883e
00000180: 583b 0d3d ff72 b5be c124 623e e814 b93d
00000190: ac2b ed3e 5899 31be 8cf5 83be a7fe f5bd
000001a0: 4d07 0ebe d76d 6bbe b400 973e a9e5 683e
000001b0: cff4 96be 5440 0e3e 6b5b adbd 4fb5 e73d
000001c0: 8308 3dbd 46b9 dbbc 71d9 233e 8da4 983e
000001d0: 646e 9f3d ff1b 8b3d c9c3 bd3d c090 b13e
000001e0: eff5 8abe 369e 7d3b 10a8 1e3e 24e0 10be
000001f0: a627 d9be bac3 dabc d9a5 c5bd 5191 573d
00000200: 67a6 a03d 3041 61bd fc09 943d 7347 a93e
00000210: 9cf7 1ebe 8b39 8d3e 4112 cebe 69b1 d3bd
00000220: 5425 dd3d 2284 f6bd 3070 893e c32c 8b3e
00000230: 4154 cebe c489 4dbe 4bc2 88be 2042 183e
00000240: 4a8e 14be 374d 3ebe f398 2bbe cd2b 953e
00000250: 0636 b73d 52e1 c7be d430 b13d 97c6 c43e
00000260: ed48 353e 94a7 f4bd 4f5d 5fbe 7dec de3d
00000270: 01bb 503e 95f4 94be 6d17 29be cc3a e4bd
00000280: 7477 16bc 157d 6c3e eed7 74be bb8c 11be
00000290: 82d7 41bd fa5e 443e ad63 273e 701f 1abe
000002a0: a958 9cbd 29d9 cbbb bd5a 693e becf 1bbb
000002b0: db08 68be 90a7 20bd 253f ed3d c4e7 083f
000002c0: bc12 a9bc c42b 8a3d a010 203c 28d5 4d3e
000002d0: b785 683e 798c 0e3d 8c16 9d3c 305d 5f3c
000002e0: 0370 523d 7f3c a33e 29d4 77be 83aa a63e
000002f0: 160d 593e 81d5 01be d2b8 b9bd 57ee af3e
00000300: 1b78 8b3e 79b8 c43d 855d 693e db6b 9abd
00000310: 0505 05bd f845 a23e 9e9f c93e 65bd 00bf
00000320: 7ce2 19be 859b 9c3c f499 c9bd fd8d 8c3d
00000330: ed7b b0bd 95b6 2c3d ddf3 223c 1531 86be
00000340: 26fa 20be e8f4 f2be ba70 24be 3298 a8be
00000350: d6d2 4fbe fb04 84bc d918 be3e 03d1 1f3e
00000360: 2893 553d 0ccc b43d 63f6 053d 2c7c 3fbe
00000370: ac9d b63e 0924 d63e 59c8 7e3e 705f 06be
00000380: 95ee de3e 335d e33e a76a 8e3e 0120 01be
00000390: 2176 d23d 1f72 98bd a218 01bd 59ff 563e
000003a0: 484e a23b 2ca7 b8bc 6fcc 10be dd14 b93e
000003b0: 0c77 94bd 66ba 7dbd 141f 4d3e aaad 283d
000003c0: ba0d ae3e 75c1 cebe 698f 3a3d e374 9fbd
000003d0: 0b58 7dbe 3ef3 dfbd 5bb4 053d 870f a53e
000003e0: c397 a13d a21f 0bbe 8a47 cb3d 58b5 573e
000003f0: 3ffe 813e c6d8 ca3c eaf0 a7be 9f8b 23be
0.15680766 0.33340496 -0.11245041 0.07756469 0.2255845 0.10627546 -0.10044693 -0.0920139
0.2277386 -0.03506365 0.15335399 0.101670735 -0.041274857 0.31524545 -0.20793612 0.2650971
-0.14572307 -0.08096269 0.1684687 -0.3426984 0.14305568 -0.007357104 -0.20146659 -0.07667478
0.004243395 -0.074994065 0.14713842 0.31790012 0.26042467 -0.13361011 0.16769662 -0.27748716
0.03714682 -0.14977817 0.1584188 0.034425106 0.26090097 0.08180986 -0.21261649 0.006356204
0.33801597 0.026030393 0.06154212 0.45694134 0.030186184 0.18776634 0.07419422 0.047176663
-0.11066152 -0.33895504 0.38521755 -0.26109192 0.039468598 -0.051858712 -0.2938944 -0.24421237
0.3609475 0.21040283 -0.00058640115 0.04722215 0.20947126 -0.011638983 0.0914762 0.110416606
0.23033749 0.17418544 -0.19951136 -0.15753765 -0.27771822 0.25621745 0.42043835 0.024948677
0.04901771 0.0123549 0.36853683 -0.035369854 0.20716074 0.0057830135 0.1763017 0.3601739
0.16156049 0.20370944 -0.1550635 0.20839994 -0.55056614 0.16354892 -0.19899079 -0.2054232
-0.11005042 0.2947826 0.0037478225 0.09752019 0.27429748 0.074405454 0.27195087 0.2670155
0.034480423 -0.35439298 0.22084333 0.09037191 0.46322381 -0.17343652 -0.25773275 -0.12011462
-0.13869973 -0.2299112 0.29492724 0.22743858 -0.2948365 0.13891727 -0.08464702 0.11313879
-0.046150696 -0.026821744 0.16000916 0.29813042 0.07784727 0.06792449 0.09265859 0.34680748
-0.27140757 0.0038699037 0.15493798 -0.14148003 -0.42413062 -0.026704658 -0.096507736 0.05262882
0.07844239 -0.05499381 0.07228467 0.33062324 -0.15524143 0.27582964 -0.40248302 -0.10336573
0.107981354 -0.12036921 0.26843405 0.27182588 -0.40298656 -0.20072085 -0.26710734 0.14868975
-0.14507404 -0.18584143 -0.16757564 0.2913498 0.08945851 -0.39039093 0.08651891 0.38432762
0.177036 -0.119460255 -0.21812938 0.1088495 0.20383836 -0.2909285 -0.16512842 -0.11144027
-0.009183753 0.2309459 -0.23910496 -0.1421384 -0.047324665 0.19176856 0.16346617 -0.15051055
-0.07634098 -0.006220956 0.2278852 -0.0023774947 -0.22659628 -0.0392223 0.115843095 0.53478646
-0.020638816 0.06746629 0.009769589 0.20100844 0.22707258 0.034801934 0.01917579 0.0136330575
0.051376354 0.31882092 -0.24202026 0.32551965 0.21196398 -0.12679102 -0.09068455 0.34361526
0.2724007 0.09605498 0.22789581 -0.07540103 -0.03247549 0.31694007 0.3937959 -0.50288993
-0.15027803 0.019117126 -0.09843817 0.068630196 -0.08617387 0.04216631 0.009945837 -0.26209322
-0.15720424 -0.47452474 -0.16058627 -0.32928616 -0.20295271 -0.016115656 0.37128332 0.15607075
0.052142292 0.08827981 0.032705676 -0.18699712 0.3566717 0.41824368 0.24881114 -0.13122344
0.435414 0.44407043 0.27815744 -0.12609865 0.102764376 -0.07443642 -0.031517632 0.20995845
0.0049531795 -0.022540651 -0.14140485 0.3614873 -0.07249269 -0.06194534 0.20031387 0.041181244
0.33994848 -0.4038197 0.045546923 -0.07785966 -0.24740617 -0.10935067 0.032642704 0.3223841
0.078902744 -0.13586286 0.09925754 0.21065271 0.25389287 0.024761569 -0.3280099 -0.1597123

output.bias f4 [10]
00000000: f03b 90bd d422 1bbe a15c 1a3e cafb 653d
00000010: b321 8abc 9d97 b73d d573 373c fcd5 f0bc
00000020: 0ef6 873d 15b6 89bc
-0.07042682 -0.15150005 0.15074398 0.056148328 -0.016861772 0.08964465 0.01119705 -0.02939891
0.06638728 -0.016810456
